weights/net.pth (torch, 594047 bytes, 78 tensors)

module.conv1.weight f4 [8, 3, 3, 3]
00000000: 19f1 453c 3ddb e53c bb1c 903d 4d0c 1a3e
00000010: b9e0 19be b123 f2bd 3786 643e 4ce7 10be
00000020: 1461 d3bd 5340 333e 9f13 1d3e e3b0 0a3e
00000030: 4b53 76bd 1a2c 453e 87e1 4d3e f98b d5bd
00000040: bdea 4cbd 427b 32bd db53 99bd d4a2 8e3d
00000050: 2d3c e0bd c45e 043e fb75 ecbd 5696 27bd
00000060: 2092 0fbe 675e 1ebe 84f8 38be 79fe a0bd
00000070: 301a 353d b03a 923d cf51 39be 8f88 ccbd
00000080: 74f5 2abe 2852 2ebe ab6e 153e 39c2 0c3e
00000090: dde4 14be 55d8 9ebd cbf4 283d ad48 063e
000000a0: 2f80 cc3d 0af5 a8bd ea4a 933d e77a 3c3e
000000b0: 2aff cebd 387e 483e f350 2a3e dbbe 1cbe
000000c0: 8aff 02be 1176 0ebe 40bb 893d 6a4c 363d
000000d0: e5e8 29be d41b dd3d 1d8d 3d3e e108 1b3e
000000e0: 2325 c2bb edd0 35be a759 edbd 7233 2cbd
000000f0: 2516 0cbd 99a9 eabd 3903 14bc c955 433d
00000100: 0a6a 073e 9884 8d3d cba8 cbbd 3648 38bd
00000110: c483 12bb 74ef cdbd 7fb4 113d 1f97 09be
00000120: 9089 b43c 2734 113e c5c2 f93d 531a 433e
00000130: 9012 033e 7221 d0bc ab87 323e ef33 993d
00000140: 4100 30be 2b8b df3d bfcd c13d 4a74 3bbe
00000150: 2b58 77bc 2935 3bbe 5e01 a2bd 6c9b c23d
00000160: 7ab9 aebd 93e0 23be f16b 833d e899 e83d
00000170: 0d17 fa3d 8a25 0d3e ea11 fd3c 50eb 27be
00000180: e9e4 d7bd 85e8 16be 1960 dfbd 3139 eabd
00000190: 137e 99ba dcc8 e1bd 5455 48be 50a1 32be
000001a0: bc62 86bd 7c98 02be c5bb c8bd 092f 0bbe
000001b0: 1508 4dbe 9f04 cd3d 1e4d ba3d e231 77bd
000001c0: 0e40 74bd e931 25be 101f 4cbe c4de 3ebe
000001d0: f2ca f7bd c524 6fbb 8790 3fbb 2dbf 6ebd
000001e0: 9d3b 353e 983e 4bbd 4bc2 4abd 0c2f 0dbd
000001f0: ff1d 29be 58fb bbbd af32 e33b c734 013e
00000200: f391 dcba c716 20be ecf5 24bc d9a2 c7bd
00000210: c2f4 af3d cb3a 8bbd 40e5 08bd 1336 25be
00000220: 536c 39ba 336e 083d bc8e d9bc c587 2f3e
00000230: f9e1 c03d d96f eebd 9658 9b3d b358 113e
00000240: 397a bb3c 2069 293e 3438 fa3a 2f56 6f3d
00000250: 15a7 dc3d fafa 503e 7ec0 cd3d 1616 d33d
00000260: f0dd 06be 8b5f 8b3c d8f7 553d ef55 d33d
00000270: 7fca 8c3d 688b ad3d 284c c0bd 13ff babd
00000280: 3f6f 853d 1c97 283e 135b 6ebc 7b94 dd3b
00000290: 85a5 c6bd a08d 14be c333 b33d 3c3f 22be
000002a0: acdf b43d 7f08 39be 19c1 21bd 4415 69bd
000002b0: 8f54 4b3e 5884 e9bc 18b5 f83c ea69 9fbd
000002c0: 16c6 b4bd 4b92 953c 5944 993d 7283 0e3d
000002d0: 9eda 79bd be0b f83d 886f 1b3e c7b1 d93d
000002e0: feb6 a7bc 60ac d33d 52a8 7b3c 7c6a fbbd
000002f0: f8ba 0b3e 8fa2 103e 0c68 b43d b188 e53c
00000300: 3a87 9bbd 04e5 0fbe 9a99 84bc 0d92 393e
00000310: e70f febd 6786 583d e527 163e 9eb5 f4bd
00000320: c351 bbbd f536 44be c6b2 2cbe e12c 06bd
00000330: ee83 18bd 3b4a d13d c88d d3bc 928e 403c
00000340: 6b33 37be bb03 293e a4b4 29be d982 e4bc
00000350: f5f9 febd dd09 06be 3841 703d 3960 10bd
0.012081408 0.028058643 0.0703673 0.15043755 -0.15027131 -0.11823214 0.22316824 -0.14150733
-0.103212506 0.17505006 0.15339516 0.1354404 -0.060138028 0.19255105 0.20105563 -0.10427088
-0.05002855 -0.04357458 -0.07486697 0.06964651 -0.109489776 0.12926775 -0.115459405 -0.040914856
-0.14020586 -0.15465699 -0.18063551 -0.07861037 0.044214427 0.071401 -0.18097614 -0.09986984
-0.16695195 -0.17023528 0.14592998 0.13745965 -0.1454043 -0.07756106 0.041249078 0.13113661
0.099853866 -0.082498625 0.07192023 0.18406259 -0.101072624 0.19579399 0.16632442 -0.1530718
-0.12792793 -0.13912226 0.06725168 0.044506468 -0.16592748 0.107963234 0.18510862 0.15140106
-0.005924837 -0.1775548 -0.115893655 -0.04204125 -0.034200806 -0.114581294 -0.0090339715 0.047689233
0.13224044 0.06910056 -0.09944304 -0.04499074 -0.002235637 -0.10055438 0.035572525 -0.13436554
0.022038251 0.14180051 0.121953525 0.1905301 0.1280005 -0.025406573 0.17434566 0.07480609
-0.17187597 0.10915216 0.09463071 -0.1830608 -0.0150967045 -0.18281998 -0.07910417 0.095023006
-0.085314706 -0.16003637 0.064170726 0.1135748 0.12211428 0.13783851 0.030892331 -0.16398358
-0.10541708 -0.14737137 -0.10907001 -0.1143669 -0.0011710547 -0.11024639 -0.195638 -0.17444348
-0.06561801 -0.1275348 -0.09801439 -0.13592161 -0.20022614 0.10010647 0.0909674 -0.060350306
-0.0596314 -0.1613232 -0.19933724 -0.18639666 -0.120992556 -0.0036490422 -0.0029230432 -0.05828779
0.17698522 -0.04962024 -0.0495017 -0.034468696 -0.16515349 -0.091787994 0.006933532 0.12617789
-0.0016828164 -0.15633689 -0.010068398 -0.097478576 0.08591606 -0.06798323 -0.033421755 -0.16133909
-0.00070733315 0.03330822 -0.026557319 0.17141636 0.09418101 -0.11642427 0.07585256 0.14193992
0.022885429 0.16544008 0.0019090236 0.0584318 0.10774056 0.2040824 0.100464806 0.10306947
-0.131706 0.017013332 0.052238315 0.10319125 0.068745606 0.08473855 -0.09389526 -0.09130683
0.06515359 0.16463894 -0.014548081 0.006762085 -0.09699539 -0.1450715 0.08750107 -0.15844434
0.088317245 -0.18069647 -0.039490793 -0.056905046 0.19856475 -0.02850549 0.03035979 -0.077838734
-0.088268444 0.018258234 0.074837394 0.034793325 -0.060999505 0.12111615 0.15179265 0.106296115
-0.020473 0.10335612 0.015359955 -0.1227617 0.13645542 0.14124511 0.08808908 0.028019281
-0.07594152 -0.14052206 -0.016186524 0.1812212 -0.12405377 0.05286255 0.14663656 -0.11948703
-0.09146454 -0.1916159 -0.16865072 -0.032757644 -0.037235193 0.102192365 -0.025824443 0.011752741
-0.17890708 0.1650533 -0.16572815 -0.027894424 -0.12450019 -0.130897 0.058655947 -0.035248015

module.conv1.bias f4 [8]
00000000: 6fe3 333e 8bef 273e d31c f43d 63e9 153d
00000010: c624 543d 816f 173e 509d 35bd 8231 423e
0.17567228 0.16399972 0.1191956 0.036599528 0.051792882 0.14788629 -0.044339478 0.18964198

module.bn1.weight f4 [8]
00000000: c06e 863f fb42 853f b289 823f 600e 7d3f
00000010: c506 7b3f fb60 803f f1a7 843f 18fd 803f
1.0502548 1.0411066 1.0198271 0.9885006 0.98057204 1.0029596 1.0363752 1.0077238

module.bn1.bias f4 [8]
00000000: fea7 9cba f47d 173b f0cd 1b3c 2761 f7bb
00000010: 37f9 b3bb ec0b 10bb 8932 613b e788 2cbb
-0.0011951921 0.0023115845 0.009509549 -0.0075494233 -0.005492355 -0.0021979762 0.0034362397 -0.0026326717

module.bn1.running_mean f4 [8]
00000000: 0000 0000 0000 0000 0000 0000 0000 0000
00000010: 0000 0000 0000 0000 0000 0000 0000 0000
0.0 0.0 0.0 0.0 0.0 0.0 0.0 0.0

module.bn1.running_var f4 [8]
00000000: 0000 803f 0000 803f 0000 803f 0000 803f
00000010: 0000 803f 0000 803f 0000 803f 0000 803f
1.0 1.0 1.0 1.0 1.0 1.0 1.0 1.0

module.conv2.weight f4 [12, 8, 3, 3]
00000000: 8ee6 1bbd 1536 8cbd 9630 bbbd d9bd 0c3e
00000010: bdae 96bd 094a dd3c ddc2 a7bd b4c7 34bc
00000020: fce5 1f3b 428a 5c3d 037d 863d 2edc 5dbd
00000030: fc53 ab3d 2270 c83d 3389 833d c72d 273d
00000040: 4ca4 1a3e f38c 723d 2aa0 673d c0b9 033e
00000050: 90c0 e23d c5a6 723d 6341 9f3d fb5b 9dbd
00000060: 7fb8 bb3c f600 23bd 6366 34bd 6d2e f3bd
00000070: db2b eebd 35f9 4fbd 2a48 eebc 3870 a53d
00000080: ca55 023d 8942 c93d 7f88 1bbd 2bc5 ba3d
00000090: 4e61 a4bd cb3e 98bd cc91 d7bd 9f63 c23d
000000a0: f096 ccbd fe05 293d 52dc 61ba bf61 d4bc
000000b0: 4b7e bebd bcc9 d03d 085e 05bd e988 b0bd
000000c0: 2672 e4bc d8ad 32bc 059d 783c 34b4 9e3d
000000d0: 6ed8 c3bd 1cf1 02bd b4af 3ebd 839b 3fbc
000000e0: 5245 bd3d c699 e63c 27e6 cc3d a468 78bd
000000f0: f8c0 b9bc d654 b73d 1de7 8bbd 018b 533d
00000100: cb3b d73c 0274 b8bd 7f7c 803d a99a a5bc
00000110: 0fc2 1c3d ea59 13be a931 733c e07c 243d
00000120: cced 48bd ef3f 00be 5db9 663d d569 a1bd
00000130: d7bc 403d c530 dabb 2ec9 39bd d07c ddbd
00000140: 9436 90bd 1244 d03d 3a83 7a3d e7f6 b0bd
00000150: 6ec4 cf3c 4ca1 0e3e c356 fd3d e284 663c
00000160: 9c03 a53d 76ea 993d 1d1d 2a3d 0246 f13d
00000170: 8dbe 223d 3186 80bd b2eb 9ebd 888c e43d
00000180: 79c4 26bd af29 d83d 0ccd fdba dbef e93d
00000190: 71d2 ed3b 3985 3abd 7f94 f93c 76ca 9fbb
000001a0: b8ce c2bd aa43 0d3d 4cae 97bd 3fe6 33bb
000001b0: d961 07bc 80bb e93d 9a0a 11bd 2fba a0bd
000001c0: 1782 38bd 2ebc ca3d 10ba e73c 09f8 cabd
000001d0: 69ae 39bd 5d44 023d ecbd 1dbd 8fb9 d33d
000001e0: d467 8fbd 60ca a03d 48e2 cebd 210e d1bd
000001f0: 726a 913d 96b6 3d3d 31c7 aa3d 9ccf 3a3d
00000200: b4e1 993c bb06 083e 628e 113e f7e0 c13c
00000210: fbe5 d63b e3a9 29bd 7434 98bd c6ba 5fbd
00000220: facd 843d e4b7 033e a949 a0bd eab1 743d
00000230: 6571 073e 546c 193d 9723 d2bd 9216 9ebd
00000240: 2593 883d a7c3 38bd 549b d0bd dbcd bebd
00000250: c8d5 99bd 49e0 5f3d 034b a7bd 4d73 ccbd
00000260: e886 06be e9bf c13d 03c3 ae3d 5639 d4bd
00000270: d660 b8bd 9139 e43d 97e4 49bc eb37 5c3d
00000280: 3c4a 94bd 86d7 ec3d c6fa 60bd d024 a4bd
00000290: 26f6 053d 4689 8c3d 4544 a43c b6cf cc3d
000002a0: 884b 4abc 9a1f 1dbd e80a 2e3d abbe 76bd
000002b0: dd25 9a3b 2293 893d 127d 0e3c 33cc 4d3d
000002c0: e968 bb3c 7c86 603d 1cfc ea3d fd3f 2d3d
000002d0: 7003 ed3d 612d c73d dd97 bcbd 45b7 a43d
000002e0: 62bb 993c 6aaf c53d 5ec6 f33b a0e9 b3bd
000002f0: 15d3 a33c 49a7 26bb f1e6 e2bc b163 dabc
00000300: 6a4e 6cbd c6bf 903d 1647 bc3d c0b5 bf3c
00000310: ffe0 aa3d 017a e23d 70b3 66bd c0b5 8bbd
00000320: d04d 313d 7dc3 65bd 3d1b a93d ab10 623d
00000330: 00a8 703d 20d7 b13d 8a89 c13d f9e0 ca3c
00000340: 74eb 8c3d 292f eebc 10cf 053e 11c8 043e
00000350: 4af5 64bd 5888 d13d 8703 cbbc 9f95 803c
00000360: cd04 19be f6b8 c0bd cf6f 83bd 8946 86bd
00000370: b9e4 a3bc 1b16 13be 01b2 d1bc 833d 2cbe
00000380: 9474 efbd 4778 26bd 723d 6bbd 7612 5b3d
00000390: 4d61 37bd ee2a 06bd e945 d9bd bf68 a73d
000003a0: 2fa6 97bd 1d7e 49bd 8beb 0cbd fa09 14bd
000003b0: f60c 8b3d 41bb 713d a0fa babd e404 97bc
000003c0: 8305 75bb 63a3 c03d 62f3 7bbd 6291 70bd
000003d0: 9128 853d b6c6 8b3d c93a df3d 5bba 0abc
000003e0: ca9a 94bd 46e3 82bd 3175 41bd b37f ba3d
000003f0: ebf6 913c 644f 67bd 7cb3 94bc f184 d53d
-0.03806167 -0.06846253 -0.091401264 0.13744296 -0.073575474 0.027012842 -0.08191464 -0.011033941
0.0024398556 0.05384279 0.06566813 -0.054165058 0.08365628 0.09787013 0.06422653 0.04081514
0.15101737 0.05921645 0.05654923 0.12863827 0.11071885 0.059241075 0.077761434 -0.076835595
0.022915123 -0.03979584 -0.044042956 -0.118740894 -0.116294585 -0.05077477 -0.029087145 0.08078045
0.031820096 0.09827144 -0.03797197 0.09119638 -0.08026372 -0.07433852 -0.105258554 0.094916575
-0.099897265 0.04126548 -0.0008615899 -0.025925515 -0.09301432 0.10194728 -0.03256038 -0.086198635
-0.027886461 -0.010905705 0.015174155 0.07749215 -0.09562765 -0.03196822 -0.046554282 -0.011694792
0.092417374 0.028149497 0.100048356 -0.060646668 -0.022675022 0.08951728 -0.06831191 0.051646236
0.026273629 -0.09006502 0.06273746 -0.02021535 0.038271006 -0.14389768 0.014843383 0.040158153
-0.049054906 -0.12524389 0.05632912 -0.07881514 0.04705509 -0.006658646 -0.045357876 -0.10814822
-0.0704166 0.101692334 0.061160304 -0.08640843 0.02536222 0.13928717 0.12370064 0.014069768
0.08057329 0.07515423 0.04153167 0.11780931 0.039732505 -0.06275595 -0.07759799 0.11159617
-0.040714715 0.105548255 -0.0019363477 0.11422702 0.0072577526 -0.045537207 0.030466316 -0.00487643
-0.09512085 0.034488358 -0.07406291 -0.002745047 -0.008263075 0.11412716 -0.0354105 -0.07848012
-0.04504594 0.09899174 0.028286964 -0.0991059 -0.045332346 0.031803478 -0.0385112 0.10338127
-0.070022255 0.078511 -0.101017535 -0.10207773 0.07100381 0.046316706 0.08338774 0.045608148
0.018784381 0.13283817 0.14214471 0.023666842 0.0065581775 -0.041421782 -0.0743188 -0.05462148
0.064845994 0.12863117 -0.078265496 0.059739985 0.1322685 0.037456825 -0.102606945 -0.07719149
0.066686906 -0.045108464 -0.101858765 -0.093166076 -0.07511479 0.054657254 -0.08168604 -0.099829294
-0.131374 0.09460432 0.08533289 -0.103624985 -0.09002845 0.111437924 -0.0123225665 0.053764265
-0.072407216 0.11564545 -0.054926656 -0.08014834 0.03270545 0.0686212 0.020052085 0.10000555
-0.01234711 -0.038360216 0.04249087 -0.06024043 0.0047042207 0.067175165 0.008696811 0.050243568
0.022877173 0.054815754 0.11473867 0.042297352 0.11572921 0.09725452 -0.09208653 0.080427684
0.018766109 0.09652598 0.0074394187 -0.08784795 0.019998113 -0.00254293 -0.027698012 -0.026658865
-0.05769197 0.07067828 0.09193246 0.023402095 0.08343696 0.11058427 -0.05632347 -0.068217754
0.0432871 -0.056094635 0.082571484 0.055191677 0.058753967 0.0868361 0.094500616 0.024765478
0.068808466 -0.029075222 0.1306727 0.12966944 -0.05589799 0.10231084 -0.024781955 0.015696345
-0.14943238 -0.094102785 -0.0641781 -0.06556422 -0.020006524 -0.14363901 -0.025597574 -0.1682034
-0.116921574 -0.04064205 -0.057431646 0.053484403 -0.044770528 -0.032755785 -0.106090374 0.081742756
-0.07404744 -0.049192537 -0.03440432 -0.036142327 0.067895815 0.05901647 -0.09129834 -0.01843495
-0.0037387318 0.094061635 -0.061511405 -0.058732398 0.06501878 0.068250105 0.10899884 -0.008467282
-0.07256086 -0.06391005 -0.047230903 0.09106388 0.017817935 -0.056472197 -0.018151991 0.10425747

module.conv2.bias f4 [12]
00000000: 52e1 713b 08b0 dbbc 6916 00bd bb2d 66bd
00000010: 653e 1d3b ee00 063d e440 d03d c397 86bd
00000020: 44c9 de3d 111c 9e3d 6a68 e93d 05a9 c23d
0.0036907983 -0.026817337 -0.031271372 -0.056195956 0.002399349 0.03271573 0.10168627 -0.06571915
0.10878232 0.07720197 0.113968685 0.09504894

module.bn2.weight f4 [12]
00000000: 298f 8d3f 8620 833f bca1 7f3f 67bf 7f3f
00000010: cfa9 873f 27ff 7e3f a598 843f ed28 823f
00000020: 37fd 803f 905d 803f 57ba 813f 9788 7f3f
1.1059314 1.02443 0.9985616 0.9990143 1.0598696 0.9960808 1.0359083 1.016874
1.0077275 1.0028553 1.0134991 0.99817795

module.bn2.bias f4 [12]
00000000: 31b0 80bb 0e64 b4ba 112f d3bb 00ba 72bc
00000010: 4e99 c43a dbce 163a a489 3d39 ca7a e0bb
00000020: 27eb 49ba f860 6bbb b0bc cd3b 65d7 3b38
-0.0039272537 -0.0013762729 -0.0064448197 -0.014814854 0.0014999302 0.000575287 0.0001807572 -0.006850575
-0.0007702582 -0.0035915952 0.006278597 4.4784876e-05

module.bn2.running_mean f4 [12]
00000000: 0000 0000 0000 0000 0000 0000 0000 0000
00000010: 0000 0000 0000 0000 0000 0000 0000 0000
00000020: 0000 0000 0000 0000 0000 0000 0000 0000
0.0 0.0 0.0 0.0 0.0 0.0 0.0 0.0
0.0 0.0 0.0 0.0

module.bn2.running_var f4 [12]
00000000: 0000 803f 0000 803f 0000 803f 0000 803f
00000010: 0000 803f 0000 803f 0000 803f 0000 803f
00000020: 0000 803f 0000 803f 0000 803f 0000 803f
1.0 1.0 1.0 1.0 1.0 1.0 1.0 1.0
1.0 1.0 1.0 1.0

module.conv3.weight f4 [16, 12, 3, 3]
00000000: 93e8 b1bd 6057 40bd cee2 ecbd 61d6 b6bc
00000010: 9da3 253d 1ff0 8abc 9e96 04be eacc f7bb
00000020: 95b4 9cbd daac 47bc 3d80 adbd 97c8 12bc
00000030: 690f 5e3c 4778 923d c6e9 ae3d 5869 8cbd
00000040: d812 92bd 0655 5ebd 8e4f 09bd efea b23d
00000050: e713 9dbd 1ab0 1ebd ec7c c5bc c64c 58bd
00000060: cab3 93bb c073 1e3b 7b58 e53c d8c7 713c
00000070: bd70 84bd 2411 4abd 91a9 d6bb c41e 9b3c
00000080: edd5 eeba bebe da3d 7593 9bbd ccc0 773b
00000090: 1429 1fbe 943b 8e3c d1a3 52bc af17 fabd
000000a0: 4e35 dfbd 09e5 03be 2cad 45bd abdf 6dbd
000000b0: 3c3b b9bd d991 8fbb 705f 2c3d 18b9 3ebd
000000c0: 783a 97bd 5ebd d0bc f643 493d 5935 863d
000000d0: 682f 8f3d aae0 213d 1e7b 5bbd 719b 95bd
000000e0: d9c7 6fbb 08ab 86bb 70b1 76bd 8a5c 5f3d
000000f0: 1747 2d3d f965 00be b1bf 8fbd f9f0 823d
00000100: 3009 67bd ed12 143b ce17 19bd a772 2c3d
00000110: 3cba 5e3d 568d 2b3d f52d f53c 3af7 f13c
00000120: 370f 803d 6a1b e8bb 32a2 503d 2e1c b43d
00000130: 0190 f53c 8d2d 2a3c 385f 863c f16e c33d
00000140: 39aa 303d 2bc8 d03b 7fa8 723d 040f 933c
00000150: c04e 743b 495b 603c 344c b73d c819 fd3c
00000160: 0c41 2b3d 828f 1d3d 8c0f 743d 5017 5f3d
00000170: c7ab aabd 5c5f c73d e878 863d 3c71 963b
00000180: c508 943d 0ffa d4bc 1ca1 043d 8d26 623d
00000190: afc4 81bd 84b3 55ba 499c 97bc 1b82 f33c
000001a0: 04f2 a7bd 3450 a4bc 26b1 19bb e9a2 cd3c
000001b0: ede5 71bd c425 7bbd 0918 0f3c c491 823c
000001c0: 5ad8 e83c 14e9 5a3d 2c45 8e3c e9ac fa3c
000001d0: fc82 87bd 10d3 98bd d785 bcbd 5fa9 f03c
000001e0: e09c f1bb bc8d bcbd 996e f5b9 72cd f03b
000001f0: 7b8d 223d 7cb1 dbbc b0a6 9abd 88b7 c5bd
00000200: 0cb9 d83b a7e8 883d 9c78 493d 078a bcbd
00000210: 7eb0 c2bd 18aa 893d 9a57 9e3d 857c 4e3d
00000220: afd1 9bbd 184a 49bd 3389 203d 66cb 263d
00000230: 66a7 a0bc c0c1 5d3d 3f40 2ebd d836 35bd
00000240: 1488 9bbc f39e a5bd b316 4b3d 8090 d8bd
00000250: a913 753d 5c17 203d 9945 cabd 44f9 b8bd
00000260: afda a0bc 220b 5c3d e3b0 40bd fc0d 903d
00000270: 0615 213d 48d0 f73c ff62 903c ccfc 82bd
00000280: 9c5e 45bd 5b66 c0bd 59b7 7f3d c2b2 d4bd
00000290: 7052 95bd de58 b2bd 7f68 d1bd 3120 b1bd
000002a0: f6c7 fabc 07f7 2ebd d1c7 f93c b24e de3c
000002b0: 0ecd c63d e3aa 033d da6e a7bd 877a 73bd
000002c0: 9566 3d3d 5234 1e3d c624 8c3c c4b9 ef3c
000002d0: 6f4e 833d ae49 913d aa85 33bd 200d 163d
000002e0: f478 953d 91c6 54bd d65b 0c3b 2a5f 8cbd
000002f0: 1e12 aabd 96ee 97bc a182 c03d 0d86 893d
00000300: 9e26 193d 1399 25bd 2bbd 8a3d bf25 b13d
00000310: fa38 c23c 9df9 813d c733 7bbd e9fe e9ba
00000320: babb 70bd 6aa8 77bc df43 933d 7cb2 8cbc
00000330: ad85 b73c bf7e bcbd 614f 833d 468b a13d
00000340: ddaa ae3c fb3b 01bd b030 183d 561e 91bc
00000350: 2a51 17bd 2b95 00bd fed5 8dbc 32e1 61bd
00000360: 410b 8a3d cb91 a8bd f436 9bbd 76b4 e3bb
00000370: a95d 0bbd 033d 953d a076 60bd 8827 153d
00000380: cf70 1b3d c23b 86bd 7680 cf3c 59bc af3d
00000390: e77d e0bc 0ca7 b6bd 35b6 be3c 42fd d9bc
000003a0: 79fd 113d e021 3ebd c66d 8ebd b000 ca3b
000003b0: ceca abbd 4621 603d 1163 debc 4d19 793b
000003c0: 3edc 7bbd 5f8d 85bd 7428 99bd 11f0 ff3c
000003d0: 501e 533d 00d4 a7bd b67e 373c 56f9 773d
000003e0: 6ecb 763d b1d7 75bd 2482 b1bd ff77 f7bc
000003f0: 39f0 42bd e3e6 c1bd 7e39 22bd 10e8 bcbc
-0.08686938 -0.046958327 -0.11566697 -0.02231902 0.040439237 -0.016960202 -0.12948081 -0.0075622695
-0.07651631 -0.012187207 -0.08471725 -0.008958957 0.013553479 0.07151847 0.085406825 -0.0685603
-0.071325004 -0.054280303 -0.033523135 0.08736216 -0.07669812 -0.038742162 -0.024107419 -0.05280759
-0.0045075165 0.002417788 0.027996292 0.014757119 -0.064668156 -0.049332753 -0.0065509756 0.018935569
-0.0018221714 0.106809124 -0.075964846 0.0037804125 -0.15543014 0.017362393 -0.01285644 -0.122115485
-0.10898839 -0.12880339 -0.048260853 -0.058074635 -0.09044501 -0.0043814 0.042083204 -0.046563238
-0.07384199 -0.025480922 0.04913708 0.06553144 0.06991464 0.039520897 -0.05358421 -0.07305039
-0.0036587624 -0.004109744 -0.06022781 0.05453161 0.042304125 -0.125389 -0.07018984 0.06393618
-0.056405246 0.0022594288 -0.037376218 0.04210153 0.054376826 0.041882835 0.02992914 0.029536832
0.06252902 -0.007083346 0.05093593 0.08794437 0.029975893 0.010386837 0.016402826 0.09542645
0.043131087 0.006371518 0.05924272 0.017951496 0.0037278384 0.013693639 0.089500815 0.030896083
0.04181008 0.038466938 0.05958514 0.054465592 -0.08333545 0.09734985 0.0656603 0.0045911353
0.07228235 -0.025998143 0.03238021 0.055212546 -0.063363425 -0.0008152055 -0.01850714 0.029725125
-0.08200458 -0.020057775 -0.0023451536 0.025102096 -0.059057165 -0.061315313 0.008733758 0.015938647
0.028423477 0.053444937 0.017366968 0.030600028 -0.0661678 -0.07462132 -0.092052154 0.029377637
-0.0073734373 -0.09206721 -0.00046812443 0.0073487097 0.039685708 -0.02681803 -0.07551324 -0.096541464
0.006613856 0.06685 0.049187288 -0.09206014 -0.095063195 0.06721896 0.077315524 0.05041172
-0.07608353 -0.049142927 0.039193343 0.04072132 -0.019611072 0.054139853 -0.04254174 -0.044241756
-0.018985786 -0.08086958 0.049582195 -0.10574436 0.059833203 0.039084777 -0.09876556 -0.09031919
-0.019635526 0.053721555 -0.047043692 0.07033917 0.03932669 0.030250683 0.01762533 -0.063958734
-0.04818593 -0.09394523 0.062430713 -0.10385658 -0.07291114 -0.08708356 -0.10225009 -0.08648718
-0.030612927 -0.042716052 0.030490788 0.027137134 0.0970708 0.032145392 -0.0817544 -0.059443023
0.046240408 0.038624115 0.017107379 0.029263385 0.064114444 0.070941314 -0.043828644 0.03663361
0.072984606 -0.05194718 0.0021417043 -0.068540886 -0.08304237 -0.018546384 0.093999155 0.06715021
0.037390344 -0.040429186 0.06774362 0.086497776 0.02370881 0.06346438 -0.061328676 -0.0017852458
-0.05877278 -0.015115837 0.0719068 -0.017174952 0.022402609 -0.092038624 0.06411625 0.078878924
0.021321708 -0.031551342 0.037155807 -0.01771466 -0.03694264 -0.031392258 -0.017313953 -0.055146404
0.06740428 -0.08230933 -0.07578841 -0.006949003 -0.03402487 0.07287028 -0.05480063 0.036414653
0.03794938 -0.06554367 0.02532981 0.08580846 -0.027403785 -0.089185804 0.023280242 -0.02661002
0.03564212 -0.046419024 -0.06954531 0.0061646327 -0.08388291 0.054719232 -0.027146848 0.0038009465
-0.061489336 -0.06521105 -0.07478419 0.031242402 0.05154258 -0.08194733 0.011199644 0.06054052
0.0602526 -0.060020152 -0.086674005 -0.030208586 -0.047592375 -0.09467866 -0.03960561 -0.023059875

module.conv3.bias f4 [16]
00000000: f8ba 3b3d 03e8 bc3d a346 74bd d33a 99bc
00000010: 58cb 66bd fd4d 24bd c8f7 87bd 605b b6bc
00000020: d366 b53c 8e11 793d 3d39 323d 2589 cfbc
00000030: 0661 753d 8370 a9bc 89e9 8e3b ec58 d73c
0.045832604 0.0922394 -0.059637677 -0.018704807 -0.056346267 -0.040113438 -0.066390574 -0.022260368
0.022143757 0.060807757 0.043511618 -0.02533395 0.059906982 -0.020683533 0.0043613357 0.026287518

module.bn3.weight f4 [16]
00000000: 6fce 803f 2c4f 803f 0000 803f 43ac 7f3f
00000010: 0000 803f 0000 803f 5329 853f 6329 833f
00000020: 7966 803f f98a 833f 0000 803f b041 853f
00000030: 6ca6 873f b88f 8b3f a1c8 843f 176a 883f
1.0062999 1.0024161 1.0 0.99872226 1.0 1.0 1.0403236 1.0247005
1.0031272 1.0276786 1.0 1.0410671 1.0597663 1.0903234 1.0373727 1.0657376

module.bn3.bias f4 [16]
00000000: 82c9 10bb 85d7 c7ba 32bc f4b9 87a0 8235
00000010: a24d c1ba d579 a2b9 bbf8 50bb fb65 9a3b
00000020: 57e1 803b 4c3d 78bb 37b8 9739 196a c2bb
00000030: 32a8 c4bb 9e41 37ba b447 48bb 9cb4 ffba
-0.0022092764 -0.0015246725 -0.00046679523 9.732474e-07 -0.0014747868 -0.0003098982 -0.0031886536 0.004711864
0.0039331126 -0.0037878333 0.00028938215 -0.005933058 -0.0060014958 -0.0006990674 -0.0030560317 -0.0019508782

module.bn3.running_mean f4 [16]
00000000: 0000 0000 0000 0000 0000 0000 0000 0000
00000010: 0000 0000 0000 0000 0000 0000 0000 0000
00000020: 0000 0000 0000 0000 0000 0000 0000 0000
00000030: 0000 0000 0000 0000 0000 0000 0000 0000
0.0 0.0 0.0 0.0 0.0 0.0 0.0 0.0
0.0 0.0 0.0 0.0 0.0 0.0 0.0 0.0

module.bn3.running_var f4 [16]
00000000: 0000 803f 0000 803f 0000 803f 0000 803f
00000010: 0000 803f 0000 803f 0000 803f 0000 803f
00000020: 0000 803f 0000 803f 0000 803f 0000 803f
00000030: 0000 803f 0000 803f 0000 803f 0000 803f
1.0 1.0 1.0 1.0 1.0 1.0 1.0 1.0
1.0 1.0 1.0 1.0 1.0 1.0 1.0 1.0

module.conv3_.weight f4 [16, 16, 3, 3]
00000000: dffc 1f3d 07df 6d3d 03c5 ea38 3971 b93c
00000010: ddc4 ec3c 914f 22bd 8e9a 1b3d f01b 94bd
00000020: 8a66 893d 1421 61bd 411d 453d e478 78bc
00000030: 3332 7abd 94ca 013d 0463 bc3d 6527 3bbb
00000040: 7a67 a53d 9747 55bd 48e7 2abd 015a 803d
00000050: 6626 76bd fd04 71bc 915d 723d 7400 1a3d
00000060: 9927 713c a88d 6dbd a065 c4bc c60c b5bc
00000070: 5284 56bc 941a 9fbd 555f 46bd 1c05 703d
00000080: 9ea6 3ebd ddba 46bb 57ab 9b3d f856 8cbd
00000090: 0d0c 833d a445 953c 4d36 aabd 4c9a 933c
000000a0: c74f 4e3d 5829 e0bb fe58 a6bd b8e0 90bd
000000b0: 470b 89bd df59 36bd 568e 563c 8aaf 2f3d
000000c0: c1ad 3c3d a844 a73d 9dad 803d 2fd1 61bd
000000d0: ae57 013c d416 96bd bc2b 50bd d8b1 d73c
000000e0: c0b2 983d d660 bcbd e02c 293d d060 1e3d
000000f0: 2c7c e23c ebc9 96bd 4b62 0dbd 5034 aabd
00000100: acd7 123d 4504 853d b717 903d 1c3c bcbd
00000110: fc61 c0bc 7c06 55bc 2121 0dbd acf3 94bd
00000120: fc99 7fbc c1a2 1fbb 80ca 14bc 2d12 d939
00000130: 1e51 823d adb4 34bd bf4b cb3b bb7f ef3c
00000140: 54b2 913d e4a3 adbd a1c0 cebd c5da 1e3d
00000150: 7b97 c1bc 4ae2 c9bd 9399 593d aa19 f53c
00000160: 5ac2 c2bd 25e8 cebd faa8 22bd 055b c6bb
00000170: 8e1c 48bd 1b03 1bbd 6236 ac3d 0a24 453d
00000180: 5c11 2dbc fd51 42bd 140d eebc 5a5a 9e3d
00000190: d896 653d 1aaf 8dbc 47a4 4e3c 171c 4cbd
000001a0: 9178 de3d cf41 8bbc 5cd3 6e3c 0cbb 843d
000001b0: 5f3b b53a 5906 26bd 7bfe 6dbd 44e1 d43c
000001c0: 1285 34bd f591 a2bb 54df bd3d c299 f13d
000001d0: 0d52 943d 6857 a4bd 0312 83bc c17f 8abd
000001e0: ea7d 343d 7613 d13c e761 81bd de7d c6bc
000001f0: 22f0 ec3c 11fc 933d 1b8f 25bd cceb 00bc
00000200: 0211 98bd 6b1e 99bd f0f9 8bbd 917a 633c
00000210: e147 a5bd 7eaa 663d 599c cfbc e23a ccbd
00000220: 4e70 993a 01b3 9cbd f185 b7bd f3e2 d5bc
00000230: 2d2c 63bd c593 313c 5d40 9abd 5668 e8bc
00000240: 1d7c 73bb 77ca 92bd aa90 c63c 39a5 b3bd
00000250: cdd4 3cbd 2e24 533d 0f95 2c3d 25d2 00bc
00000260: 62b7 803c 2986 b8ba 01de 893c db75 273d
00000270: 83a8 9e3d 96f2 70bd 8f87 b2bb 3edc 5abc
00000280: 0d6a aabc caab aa3b cb08 22bc 0431 34bd
00000290: 3569 863d 9490 e03c 1c6a 3fbd a010 913c
000002a0: fdc9 a53d f344 c43c 25c6 3c3d 0cd3 013d
000002b0: 128a 79bd a123 033d c6b2 7d3d 2502 233d
000002c0: ed11 5b3d 70fe 16bc 5668 34bd c668 6dbd
000002d0: 0972 2abd 5a67 8cbd 3ed0 a43d 6486 28bd
000002e0: 6b8e 0abd d980 80bd 4df0 a43d 90fd ec3c
000002f0: 7e20 a33d dda4 adbc 06a8 1d3d 9316 8fbd
00000300: d36a 813d 99c0 2bbb 3b73 2c3d d2e5 9b3d
00000310: e819 193d 0164 79bd 412c 973c d779 a03d
00000320: 1e4f f73c faa1 6ebd 8641 aabb 3f99 28bd
00000330: 2eb3 96bd 2729 88bb d99d 62bc 4652 963d
00000340: e6ab 1a3c 5609 52bc 1c60 a23d fdfa 26bd
00000350: 18d4 323d e53d a73c 1dc3 91bc f622 03bc
00000360: 9d49 ffbb d3b8 153d 87fb ee3c 56a0 99bd
00000370: 1afb b1bd 4740 823c 2cb9 d4bc f9bf 82bc
00000380: 5064 a03d 3dd9 823d 0b0f b63c d468 e93c
00000390: 6285 d83c 698a 0cbd c5cf 5fbd f676 183d
000003a0: fe4e 483c bd0b 96bd 9513 7bbc 2cfa a5bd
000003b0: c960 173d 7636 ae3c 5a16 18bd d00e 483c
000003c0: 0efd 113d bd26 39bd 0ed5 983d a663 e83c
000003d0: 8cda 9b3d 2f65 c1bc ffe4 6e3d 981b 17bd
000003e0: f094 f33c dc1e 6b3d ee8c 12bd a695 803c
000003f0: f2a4 ac3a df37 ac3d 5d65 71bc 7cca 473d
0.039059516 0.058074024 0.00011194686 0.022636997 0.028902465 -0.03962666 0.03798919 -0.07231891
0.06709011 -0.054963186 0.0481236 -0.015165541 -0.06108303 0.031687334 0.09198573 -0.0028557417
0.08076377 -0.052070227 -0.041724473 0.06267167 -0.060095213 -0.014710662 0.059171263 0.03759809
0.0147189135 -0.057996422 -0.02397424 -0.022100817 -0.013093071 -0.07768741 -0.04843076 0.058598623
-0.046545617 -0.0030323782 0.0760104 -0.068525255 0.06398783 0.018221684 -0.08311138 0.01801791
0.05036905 -0.006840866 -0.08122443 -0.07074112 -0.06691604 -0.0445193 0.013095459 0.042892016
0.046064142 0.08167392 0.06283114 -0.055131134 0.00789444 -0.07328573 -0.05082296 0.02632992
0.07455969 -0.091981575 0.04130256 0.038666546 0.0276471 -0.073627315 -0.034517568 -0.08310759
0.035850212 0.06494955 0.07035773 -0.091911525 -0.023484223 -0.013002034 -0.034455422 -0.07273039
-0.015600678 -0.0024358483 -0.009081483 0.00041403007 0.06363128 -0.04411762 0.006204098 0.029235711
0.071140915 -0.08478525 -0.10095335 0.038782854 -0.023631802 -0.09857614 0.053124975 0.029919464
-0.09509726 -0.10102872 -0.03971193 -0.006053331 -0.048855357 -0.03784476 0.0840881 0.048130073
-0.010563221 -0.04744147 -0.02905897 0.07732077 0.05605206 -0.017295409 0.012612409 -0.049831476
0.1086284 -0.016999153 0.014576759 0.06480989 0.0013826898 -0.040533397 -0.05810402 0.025986321
-0.04407222 -0.004961247 0.09271112 0.11796905 0.072422124 -0.08024484 -0.0159998 -0.067626484
0.044065394 0.025521975 -0.063175015 -0.02422994 0.028923098 0.07225812 -0.04041968 -0.007868718
-0.07425119 -0.07476505 -0.06834781 0.013884203 -0.080703504 0.056314938 -0.025343107 -0.099721685
0.0011706443 -0.0765133 -0.08961094 -0.026109194 -0.05546205 0.010838454 -0.075318076 -0.028370064
-0.0037152835 -0.07167523 0.024238903 -0.08771748 -0.04610138 0.051548176 0.04213434 -0.007862602
0.015712444 -0.0014078069 0.016829493 0.04088388 0.07746985 -0.058825098 -0.0054482887 -0.013358174
-0.020802522 0.005208467 -0.009889792 -0.043992057 0.065630354 0.02741269 -0.046732053 0.017708123
0.08095167 0.023958659 0.046087403 0.03169541 -0.06092269 0.0320164 0.06193807 0.039796967
0.053483892 -0.009215936 -0.044044815 -0.057961248 -0.04161266 -0.0685565 0.080475315 -0.04114379
-0.033827227 -0.06274576 0.08053646 0.028929502 0.07965182 -0.021196777 0.038490318 -0.069867276
0.06319203 -0.0026207326 0.04210208 0.07612194 0.03737822 -0.060886387 0.01845372 0.07835739
0.030189093 -0.05825994 -0.0051957993 -0.041161772 -0.073583946 -0.0041552964 -0.013831579 0.07339911
0.009440398 -0.012819609 0.07928488 -0.040766705 0.0436593 0.020415256 -0.017793233 -0.008003941
-0.007790758 0.036553215 0.029172672 -0.07501285 -0.08690472 0.01589979 -0.025967203 -0.01596068
0.07831633 0.06389091 0.02222397 0.028492369 0.02643079 -0.034311686 -0.054641504 0.037222825
0.012225864 -0.07326458 -0.015324493 -0.08104357 0.036957536 0.021266203 -0.03713069 0.012210563
0.035641722 -0.04520296 0.07462512 0.028367829 0.07610044 -0.023607818 0.058323856 -0.03689155
0.029734105 0.057402477 -0.035778932 0.015696358 0.0013171716 0.08409094 -0.01473364 0.04877709

module.conv3_.bias f4 [16]
00000000: 1e5f 2d3c 7fa7 88bd d344 25bd 200e a33d
00000010: d15b 233c 68e7 9d3d 0a78 9b3d f974 94bd
00000020: 1ce2 cb3c 3080 983d e7ca 50bd db20 66bd
00000030: acc3 713d 0900 b6bd 7ed4 a9bd 036b 8f3d
0.01058176 -0.06672572 -0.04034884 0.079616785 0.009970621 0.07710153 0.07591255 -0.07248873
0.02488809 0.07446325 -0.050974753 -0.056183677 0.059024498 -0.088867255 -0.08292483 0.07002833

module.bn3_.weight f4 [16]
00000000: fd3d 833f 0f76 803f 57b2 7f3f cb53 883f
00000010: f324 873f fda9 813f 9d10 823f 0990 913f
00000020: cf86 813f 8727 813f 1a31 8d3f 57b4 823f
00000030: edff 803f b929 833f 0000 803f 3b05 813f
1.0253292 1.0036029 0.998815 1.0650572 1.0558151 1.0130001 1.016132 1.1372081
1.0119265 1.0090188 1.103061 1.0211285 1.0078102 1.0247108 1.0 1.0079721

module.bn3_.bias f4 [16]
00000000: 74dd a5bb 2c4c aa39 1d0a 8c3c 0bf3 b3bb
00000010: 912b 5b3c fcbb 473b 0914 10bb 6d69 493b
00000020: 2d25 d93a 8024 92b9 edde 9cba b685 7c3b
00000030: ab60 08bb c636 67bc b359 75bb b04b 82b9
-0.0050617997 0.0003248168 0.017094666 -0.0054916195 0.013377086 0.0030477038 -0.0021984598 0.0030733005
0.0016566865 -0.00027874485 -0.0011968293 0.0038531846 -0.0020809572 -0.01411218 -0.0037437498 -0.00024851924

module.bn3_.running_mean f4 [16]
00000000: 0000 0000 0000 0000 0000 0000 0000 0000
00000010: 0000 0000 0000 0000 0000 0000 0000 0000
00000020: 0000 0000 0000 0000 0000 0000 0000 0000
00000030: 0000 0000 0000 0000 0000 0000 0000 0000
0.0 0.0 0.0 0.0 0.0 0.0 0.0 0.0
0.0 0.0 0.0 0.0 0.0 0.0 0.0 0.0

module.bn3_.running_var f4 [16]
00000000: 0000 803f 0000 803f 0000 803f 0000 803f
00000010: 0000 803f 0000 803f 0000 803f 0000 803f
00000020: 0000 803f 0000 803f 0000 803f 0000 803f
00000030: 0000 803f 0000 803f 0000 803f 0000 803f
1.0 1.0 1.0 1.0 1.0 1.0 1.0 1.0
1.0 1.0 1.0 1.0 1.0 1.0 1.0 1.0

module.conv4.weight f4 [32, 16, 3, 3]
00000000: 0115 4c3d 279a 0dbb 0742 873c f1c7 3b3d
00000010: 66da 583b 72d1 c33d c67a 163d c0b3 0dbd
00000020: 59c3 c43c 60bf efbc 966b 29bd 062e 9b3d
00000030: a095 72bd d3c0 80bd da14 aa3b f627 843d
00000040: 08ad 4a3d 48f0 7b3d e5f7 59bd f293 a0ba
00000050: 5b14 fc3b 988a 69bd dfc2 9abd f57c 88bc
00000060: 4f4b 1f3d a60b 44bd e5c4 893d 01ac c63d
00000070: a8d6 d0bb 49b4 ce3c ad1a f53d d553 cfbc
00000080: 79eb 973d a5d4 053e 5e3b 773c 3793 a53d
00000090: ed5e 29bd fd40 91bd 3b33 82bb 9fbd 8e3d
000000a0: aa74 47bd ea5d 353d 51ad 123d 313c 3ebd
000000b0: cef1 23bd 4c8e debc d7e0 cbbc 4340 713d
000000c0: a7de ac3d 0964 963d 34bc a23d aa74 943d
000000d0: ace4 7b3d d012 833d c10a 23bd bc44 74bd
000000e0: 4a53 b23d 133f a3bc b32d 033d 2b69 b13d
000000f0: 4788 4b3d bd3e 8f3d 3e34 2bbb d07b dbbb
00000100: 9c58 d2bd 5f50 353a bef7 493d 3bcf c5bc
00000110: ca37 b3bd 8f1d 5e3d 8b16 61bd 9d1f 70bd
00000120: 9cf3 91bb e19f 38bc 62a0 ccbc a269 8cbd
00000130: 6a2d 80bc 586f 213d 791d 01bc d040 3bbd
00000140: d0a1 6a3c d4b2 393d 1009 96bd da0b 8dbd
00000150: bad7 873d 9eb8 f93c aa23 2bbd bf4c 69bd
00000160: a2e1 0e3d 96fe 6a3d ba6f 9abb f7bc 99bd
00000170: 68f2 c7bc 2597 1c3d 16ff 593d 4f8d 5a3c
00000180: 9ac2 bcbd 39b4 f83c ec1f a0bd 7acc 3a3d
00000190: 7bd5 8d3d 2ac8 efbc d4ea 6d3c 5740 8dbd
000001a0: 06b5 ea3c cd24 ab3c 1e65 9c3d 27a3 ff3c
000001b0: ed07 4e3d 475e 823d 74ae bbbc e19c 2dbd
000001c0: c6c4 883d 0a00 cf3c 48f3 953b 2129 883d
000001d0: e614 ae3d f53b a83d b301 cd3c d998 d53c
000001e0: 6f93 ba3c 0ce1 6bbd 054d 9d3d 6167 e63d
000001f0: d7a8 f03d caf1 bebc df31 8a3d bae0 a5bc
00000200: f74e 41ba dfea 93bd 265a 913d 51bd 3d3d
00000210: 5538 11bc 8b19 8fbd 4053 8cbd d3bf 533d
00000220: 18d6 2e3d f285 8cbd d8ed 553d 3de2 7b3d
00000230: 29e3 383d 0794 91bd da67 513d 568e a3bb
00000240: 456c fb3c 4162 7bbd dacb 18bd 58a3 81bc
00000250: 8525 d2bc 36c8 ca3c 696b 5b3d 6e83 19bd
00000260: bc1e 823d b0f5 5c3d 16e5 1d3d af26 10bd
00000270: cc0b 8ebd 1dff 003d 6925 4d3d fdf6 9fbd
00000280: 9cd3 85ba 1876 1abd c6ef a13d a743 30bd
00000290: 59fb a13d c4d5 0e3d 4d64 553c 9fbb 3cbd
000002a0: e358 763b 59ad 15bc 2a68 533d ea06 b8bd
000002b0: 805a 04be bc01 56bd 8f01 10be 4b7d 05be
000002c0: 99f4 053c 60b5 a4bc 01c8 acbd 8713 0bbe
000002d0: 3cbd a23d fe26 993b b77c 9e3d 9d9b 4bbd
000002e0: ccb2 6f3c 1d25 8dbc f613 903d 4360 47bd
000002f0: 07a6 2abd f775 a33d 7f17 8a3d fe70 dbbb
00000300: 2f65 f8bc 6a03 abbb c481 6d3b 6b22 c83b
00000310: cf35 63bd 09d4 323d 230f 153d 84a6 0fbd
00000320: 8329 073d 7d45 123d f6b1 8ebd a5c7 fcba
00000330: 7061 373d cce3 5fbb db9c 66bd e115 f2bc
00000340: f1f0 5abc a3ab 8b3d a787 b53d c355 29bb
00000350: aa63 873d 8055 863c 385a 5f3d 6994 84bd
00000360: 207a 89bc 12f7 0b3c 31b0 0c3d ce10 b83c
00000370: 1a41 5e3d 24ee 8ebd 6834 32ba f5d4 2fbd
00000380: f8d1 d5bc be14 903d 7d9f 2abd 2b01 223d
00000390: 0860 b53d b1b0 9abb 357c 3a3c 0610 013d
000003a0: a085 703d 5bf3 323d f3d8 5a3d ddbe ef3c
000003b0: ebbb c33d 6657 aa3c 557e 48bd 8714 75bd
000003c0: a9ec 343d a65a 1abc 0ea6 f1bb bad7 53bd
000003d0: 85d7 bd3d 3908 943d bc33 a8bc 0a0c 683d
000003e0: 8c95 783d e3a0 d43d 8e3a 5bbc 18be aa3d
000003f0: 26d9 9c3d 5bc0 23bd a496 0abd 49a9 43bc
0.04982472 -0.0021606775 0.016510976 0.045844976 0.003308916 0.09561433 0.03673818 -0.03459525
0.02401893 -0.02926606 -0.041362368 0.07577138 -0.059224725 -0.06286778 0.005190474 0.064529344
0.04948142 0.061508447 -0.053214926 -0.0012251122 0.0076928562 -0.05701694 -0.075567 -0.016661147
0.03889018 -0.04786267 0.06727008 0.09700776 -0.0063732453 0.025232451 0.119679786 -0.025308529
0.0741796 0.13069399 0.015089838 0.0808472 -0.041350294 -0.07092474 -0.0039733923 0.06969761
-0.048695244 0.044279017 0.03580982 -0.04644412 -0.040025525 -0.027167462 -0.024887485 0.058899175
0.08440905 0.07343299 0.07946053 0.072488144 0.061497375 0.064000726 -0.039805178 -0.059635863
0.087072924 -0.019927537 0.032026004 0.08662637 0.04969051 0.06994388 -0.0026123668 -0.006698109
-0.10270807 0.0006916578 0.04930853 -0.024146667 -0.08750875 0.054227408 -0.05495314 -0.0586239
-0.0044540893 -0.011268587 -0.02497882 -0.06856085 -0.015646655 0.039412826 -0.007880562 -0.045716107
0.014320806 0.04533656 -0.07325947 -0.06887026 0.066329435 0.03048354 -0.04178206 -0.056957956
0.03488315 0.0573717 -0.004713026 -0.07506745 -0.02440758 0.03823008 0.053221785 0.013339355
-0.09216805 0.030359374 -0.078185886 0.04560516 0.06925484 -0.02927025 0.014521319 -0.068970375
0.028650772 0.020891571 0.07636474 0.031205727 0.050300527 0.06365638 -0.022910334 -0.04238594
0.066781566 0.025268573 0.0045761205 0.0664847 0.0850008 0.08214561 0.025025224 0.02607386
0.02277538 -0.05758767 0.07680706 0.11250187 0.11750954 -0.023308653 0.067477934 -0.02024876
-0.00073741324 -0.072225325 0.070972726 0.046323124 -0.008863528 -0.06987294 -0.06851816 0.05169661
0.042684644 -0.068614855 0.05222878 0.061495055 0.04513851 -0.07108312 0.05112443 -0.004991333
0.030691275 -0.061373 -0.037303783 -0.015824959 -0.025652656 0.024753671 0.05356923 -0.037478857
0.06353518 0.053945243 0.03854855 -0.03519314 -0.06935844 0.031493295 0.050084505 -0.07810781
-0.0010210159 -0.03771028 0.07907061 -0.04303327 0.07909269 0.03487183 0.013024402 -0.046077367
0.0037589602 -0.009135568 0.05161301 -0.08985694 -0.12925148 -0.052247748 -0.14063095 -0.13036077
0.008175992 -0.020106018 -0.08436585 -0.13581668 0.0794625 0.0046738377 0.07738631 -0.04970895
0.014630031 -0.017229611 0.07035057 -0.048675787 -0.041662242 0.079814844 0.06742763 -0.0066968193
-0.030321686 -0.005218913 0.0036240676 0.0061076186 -0.055471238 0.043659244 0.03639139 -0.03507091
0.032998573 0.0357108 -0.06967537 -0.0019285573 0.044770658 -0.0034162877 -0.056301933 -0.029551448
-0.013363109 0.068198465 0.08863764 -0.0025838471 0.06610806 0.016398191 0.0545294 -0.064736195
-0.016781867 0.008542793 0.034347717 0.02246895 0.054261304 -0.069790155 -0.000679797 -0.0429277
-0.026101097 0.07035206 -0.041656006 0.039551895 0.08856207 -0.0047207703 0.011382152 0.03150942
0.058721185 0.043689113 0.053429555 0.029265815 0.09557327 0.020793628 -0.048948605 -0.05983403
0.04417101 -0.009421026 -0.0073745316 -0.051719405 0.09269623 0.07228131 -0.020532481 0.056652106
0.060689494 0.10382249 -0.01338066 0.08337039 0.07658605 -0.039978366 -0.03383507 -0.011942216

module.conv4.bias f4 [32]
00000000: d3d8 90bd 4b4d 863d c137 23bd f97a 51bd
00000010: e45c e93c f80e 96bc a533 cebb 484d 0dbd
00000020: d71c 103d d8cd 07bb 7657 833d 4ae3 6fbd
00000030: 3efc 153d 1814 913d e380 33bd 9dc3 5dbd
00000040: db81 223d 589e 9b3c 9524 183d ea89 22bd
00000050: 7477 92bd 5add 2d3d 4e2b 8fbd cd06 99bd
00000060: a6e7 b03d a51c 343d 081d 63bd d63e e7bc
00000070: 55d2 5a3c 5468 b33c fc51 edbc f9ac 4dbd
-0.07072606 0.06557711 -0.039848093 -0.051142666 0.028486677 -0.018317685 -0.0062927776 -0.03449753
0.035183754 -0.0020722058 0.06413166 -0.05856637 0.03661751 0.07083911 -0.043824088 -0.05414163
0.03967462 0.018996403 0.037144262 -0.039682306 -0.0715169 0.042447425 -0.069906816 -0.07472
0.086379334 0.04397263 -0.05544761 -0.028228205 0.013355811 0.021900333 -0.028969757 -0.050213788

module.bn4.weight f4 [32]
00000000: e478 823f fd56 813f 0000 803f f241 813f
00000010: 7d5c 813f 669f 813f 27d3 833f 85b9 7f3f
00000020: a4af 803f 0fee 863f 4abf 803f 58be 833f
00000030: 3d31 813f b2c2 853f 0000 803f 661b 823f
00000040: 888d 803f 2014 853f a549 813f 6df1 833f
00000050: 0000 803f 6138 803f 0000 803f f125 863f
00000060: 328b 813f 0ae7 803f 24c0 7f3f feea 803f
00000070: c110 813f 9602 813f 2786 853f 2ac6 7e3f
1.0193143 1.0104672 1.0 1.009825 1.010635 1.012677 1.0298814 0.99892455
1.0053601 1.05414 1.0058377 1.0292463 1.0093151 1.0450041 1.0 1.0164611
1.0043192 1.0396767 1.01006 1.0308052 1.0 1.0017205 1.0 1.0480329
1.0120604 1.0070508 0.9990256 1.0071714 1.0083238 1.0078914 1.0431565 0.99521124

module.bn4.bias f4 [32]
00000000: 665f 69bc 3efe 163c 292d 1c3c 09d4 fdbb
00000010: 9815 0f3b 74b8 abbb 2bfc 7cbb 1817 ae3b
00000020: e13f 48bb 8969 52bc 2e4a 85ba 0077 d8bb
00000030: 80de 8bb9 e141 2e3b 2008 6dba dad4 9abb
00000040: eaee 82ba c9f3 263b 4013 983b d366 dbbb
00000050: fed9 4d3c 9492 38bc 0126 4cb9 c14e 63bc
00000060: 0f98 543c 5529 1abb 0eb1 313c 49a7 55bc
00000070: e6c1 8fbb 6bf9 a739 1e5a 11bc 5dac 5b3c
-0.014243936 0.0092158895 0.009532251 -0.007746224 0.002183294 -0.0052404944 -0.0038602452 0.0053128116
-0.0030555653 -0.012842544 -0.0010169202 -0.006605983 -0.0002667792 0.002658956 -0.0009042043 -0.004725081
-0.0009989415 0.0025474897 0.0046409667 -0.006695607 0.01256418 -0.011265416 -0.00019469114 -0.013873757
0.012975707 -0.002352317 0.010845436 -0.013040372 -0.004387128 0.00032038553 -0.008871583 0.013407794

module.bn4.running_mean f4 [32]
00000000: 0000 0000 0000 0000 0000 0000 0000 0000
00000010: 0000 0000 0000 0000 0000 0000 0000 0000
00000020: 0000 0000 0000 0000 0000 0000 0000 0000
00000030: 0000 0000 0000 0000 0000 0000 0000 0000
00000040: 0000 0000 0000 0000 0000 0000 0000 0000
00000050: 0000 0000 0000 0000 0000 0000 0000 0000
00000060: 0000 0000 0000 0000 0000 0000 0000 0000
00000070: 0000 0000 0000 0000 0000 0000 0000 0000
0.0 0.0 0.0 0.0 0.0 0.0 0.0 0.0
0.0 0.0 0.0 0.0 0.0 0.0 0.0 0.0
0.0 0.0 0.0 0.0 0.0 0.0 0.0 0.0
0.0 0.0 0.0 0.0 0.0 0.0 0.0 0.0

module.bn4.running_var f4 [32]
00000000: 0000 803f 0000 803f 0000 803f 0000 803f
00000010: 0000 803f 0000 803f 0000 803f 0000 803f
00000020: 0000 803f 0000 803f 0000 803f 0000 803f
00000030: 0000 803f 0000 803f 0000 803f 0000 803f
00000040: 0000 803f 0000 803f 0000 803f 0000 803f
00000050: 0000 803f 0000 803f 0000 803f 0000 803f
00000060: 0000 803f 0000 803f 0000 803f 0000 803f
00000070: 0000 803f 0000 803f 0000 803f 0000 803f
1.0 1.0 1.0 1.0 1.0 1.0 1.0 1.0
1.0 1.0 1.0 1.0 1.0 1.0 1.0 1.0
1.0 1.0 1.0 1.0 1.0 1.0 1.0 1.0
1.0 1.0 1.0 1.0 1.0 1.0 1.0 1.0

module.conv5.weight f4 [64, 32, 3, 3]
00000000: ff59 86bb 40f7 c1bc e180 28bd 2871 ce3c
00000010: 2f8f 3c3d e969 eb3c bb65 b73c 6608 883d
00000020: 3b6c ecbc 81ed 7d3c 091f 483d 3cce c2bc
00000030: 94ac bdbc a11f 503d 17ca e93c 428d cabb
00000040: 18ac 2bbd 2a5b 0ebd 85aa 6e3d 4ee8 80bc
00000050: 90bb 983c b3e1 7f3c 64ad 26bd 4938 323c
00000060: 0c1f 643d 93f9 373c a2ce 50bc 1f08 22bc
00000070: f035 0dbd 942b 4dbb 60a6 973b e300 f4bc
00000080: b7d6 4d3d ebef 723b 9220 203d c44b 673c
00000090: 09d7 873c 1e53 d5bb 172a 2d3d 828b 2bbd
000000a0: 1309 343d c57d 0e3c 4f43 463d a253 a13c
000000b0: 419c 7d3d b46f 0dbd 2cc0 ebba 1185 ffbc
000000c0: 10ae ad3c a09c bc3c b806 49bc df7e 67bc
000000d0: 31ea b23c e3bd 6f3d 768f b03c d8b7 d03c
000000e0: 026a 8fbc 8913 19bd 8cc2 e03c 2f11 983c
000000f0: 027f a63d bfee 9c3c 4e06 d63c 7b74 2e3d
00000100: 98a7 143d 5bec c63c f8bd ea3c 0265 3abd
00000110: 8514 18bd c784 ca3c a038 5fbd 9e53 613d
00000120: b0b7 5e3d 3fe9 553d aeae 5a3d 36c6 b93a
00000130: 1b2f b03c ac71 46bd 68bc 973b 30ca 963c
00000140: ad98 723d 7b84 d33c a113 a33c d870 8abc
00000150: 6b1d 7dbc 696e f23c 24bc 22bd ecf4 343d
00000160: 3721 09bd d93b 0a3d 6faf b43c 776a f73a
00000170: 5ba9 5b3d 9e55 803d 3123 2ebd 864b 0b3c
00000180: 8bf9 0fbd ee59 4b3d 22c0 24bd b0c7 963d
00000190: e10d 66bc 0693 d9bc 2b17 b7bb b37c 443d
000001a0: 9d91 26bc f562 82bc 9586 f73c 6df7 403d
000001b0: 06f7 99bc a8e1 19bd e8f8 0bbc f012 b3bc
000001c0: 316a 4abc ce33 05bd 66d7 653c 7b13 d93c
000001d0: 68f9 e53c e147 89bd 9f83 9fbd c046 36bd
000001e0: dec5 abbd 1d77 013c 4029 b43c cc0c 8abd
000001f0: 5d2a fdbc 2eea 76bd b380 2b3d 7736 3bbd
00000200: 683c d63c 0e0d 803c 77f9 0e3d 44fa dd3c
00000210: 70e0 3abd c0c2 d9bc 3583 b33c 020f 90bc
00000220: 3139 29bd 88e6 463d fd89 e3bc 4ff2 28bd
00000230: 160b 35bd 4e0f 003d b245 14ba c759 2b3d
00000240: 7d17 67bc 5e73 10bd 39de 573d d6dd d2bc
00000250: 9471 063d 1295 28b9 2722 c13c 23d6 863d
00000260: 5a36 4cbc 2791 ed39 80a7 e7bb bf40 3b3b
00000270: a963 97bc efd8 96bd 7000 ad3c 165d e7bc
00000280: 0e67 f2bc 8c6d 9cbd bccf 19bd eeb9 3dbd
00000290: c46a fdbc 03bc 46bd dbcb 263d f065 003b
000002a0: 69ec c73c 752a c83c d569 acbb 1d8b 893d
000002b0: 8b85 4d3d 00a5 5a3c 6939 4d3d b7d9 383a
000002c0: 070b 933c c1a5 483c 751e 1bbd 7d2c be3c
000002d0: 609d 6a3d c219 65bd 37c1 52bd 9fdb 1f3d
000002e0: 0a20 cbbc 7617 7f3c 3a1f c33c ee9f 64bd
000002f0: bcb7 753c 1fcf 8e3b 4766 303d 9c48 7abc
00000300: 126c 42bc c8c9 3ebd 9c16 243d 8a61 723d
00000310: 4423 a43c 7692 f53c d1e5 5ebd 7051 ae3a
00000320: 9121 22bd 8c2c 34bd 984e 603c 1380 e7bc
00000330: 3543 17bc cf5f ec39 9c97 313d 6036 8dbc
00000340: b43d 83bd 78d7 1dbc 4d5e 1fbd c21b 90bc
00000350: 5457 1d3d 6f1c c4bd 1366 97bd d0f9 5abd
00000360: a982 573d 0122 b2bc 58cb 37bd e344 37bd
00000370: 9790 5b3d 0e8d d3bb d0da 1b3d caa5 0ebd
00000380: 5e44 333d a0dc 6a3d 679b 1b3d caf8 2fbd
00000390: a4e2 d7bc 3997 623d e4a6 93bb 38b1 6e3d
000003a0: 7005 863d 7056 9fbb 173d 36bd e528 f13c
000003b0: 2e28 95bc 9f3d 463c 3007 47bd f688 133d
000003c0: 17ac 02bb fe35 67bd 6621 393d ab69 3a3d
000003d0: 9e19 f83b 0d17 d9bc 980c 5b3d 9315 3b3c
000003e0: 5dc3 27bc 473a 18bd c765 6bbd c389 33bc
000003f0: 13d8 083b f366 2ebd fa59 133d 90b0 053d
-0.004100084 -0.023677468 -0.041138534 0.025200441 0.046034988 0.028737025 0.022387376 0.06642227
-0.028860202 0.01549852 0.048857722 -0.02377998 -0.02315358 0.050811414 0.028538747 -0.00618139
-0.04191217 -0.03475491 0.05826809 -0.015735772 0.018644124 0.015617776 -0.040692702 0.010877677
0.05569367 0.011228937 -0.012744578 -0.0098896315 -0.034475267 -0.0031306492 0.0046279877 -0.02978558
0.050253596 0.0037069272 0.03909356 0.014117185 0.016582029 -0.0065101525 0.042276468 -0.041881092
0.043953966 0.008696978 0.048404034 0.0196932 0.061916593 -0.034530357 -0.0017986349 -0.03119138
0.021201164 0.023023903 -0.012269668 -0.0141293695 0.021840187 0.0585307 0.021552783 0.025478289
-0.017506603 -0.037372146 0.027436517 0.018562881 0.081296936 0.019156812 0.026126053 0.042591553
0.036292642 0.024282625 0.028655037 -0.045506485 -0.037128944 0.024721516 -0.05449736 0.055011384
0.054374397 0.052224394 0.053389244 0.0014173451 0.021506837 -0.04844825 0.004630614 0.018406957
0.059227634 0.025820008 0.01990682 -0.016899511 -0.015448908 0.029593663 -0.039730206 0.04417889
-0.03347894 0.03374848 0.02205631 0.0018876333 0.053628307 0.0626633 -0.04251403 0.008501893
-0.035150092 0.04964631 -0.040222295 0.07362306 -0.014041395 -0.026559364 -0.0055874786 0.047970485
-0.010166553 -0.015916327 0.03021554 0.047110964 -0.018794548 -0.03756872 -0.008543231 -0.021859616
-0.01235442 -0.032520108 0.014028406 0.026498547 0.028073028 -0.06703163 -0.077887766 -0.044501066
-0.083873495 0.007901934 0.021992326 -0.06740722 -0.03090399 -0.060281925 0.041870784 -0.04570624
0.02615185 0.015631225 0.034905877 0.027096875 -0.045624197 -0.026582122 0.02191315 -0.017585281
-0.041314308 0.048559695 -0.027775759 -0.04124671 -0.044200025 0.031264596 -0.00056561374 0.041833665
-0.014104721 -0.035266273 0.052702162 -0.025740545 0.03282316 -0.00016077262 0.023575855 0.06583812
-0.01246413 0.0004531231 -0.007069528 0.0028572527 -0.018480139 -0.073655955 0.021118373 -0.028242629
-0.029590156 -0.07638082 -0.037551627 -0.046319894 -0.030934699 -0.048519146 0.040721755 0.001959201
0.024404721 0.024434308 -0.0052616396 0.06715987 0.050176185 0.013345003 0.05010358 0.0007051485
0.017949594 0.01224655 -0.037870843 0.023214573 0.05727899 -0.055932768 -0.051453795 0.039027806
-0.02479555 0.015569558 0.0238186 -0.055816583 0.014997419 0.004358187 0.04306629 -0.0152761005
-0.011866586 -0.046579152 0.040060624 0.05917505 0.020036347 0.029977065 -0.05441839 0.0013299417
-0.039582793 -0.043987796 0.013690613 -0.028259313 -0.009232332 0.0004508481 0.043357477 -0.017237842
-0.06408253 -0.009633891 -0.03890829 -0.017591361 0.03841336 -0.09575736 -0.07392516 -0.053460896
0.05261484 -0.02174473 -0.044871658 -0.04474343 0.05360469 -0.006456024 0.038050473 -0.034826078
0.043766372 0.05733931 0.03799 -0.042961873 -0.026353188 0.05532 -0.004505979 0.058274478
0.06544006 -0.004862599 -0.044491854 0.029438445 -0.018207636 0.012099653 -0.04859084 0.036019288
-0.0019939 -0.056447975 0.045197867 0.04551093 0.007571413 -0.02650025 0.053478807 0.011418718
-0.010239449 -0.037164953 -0.05747011 -0.010958138 0.0020880743 -0.04257865 0.03597448 0.032639086

module.conv5.bias f4 [64]
00000000: a33d a43c 61e0 003c 0a66 9e3c b79d 203d
00000010: f990 0c3d 225d e7bb 52fc 323d a1de bfbc
00000020: 80fd 213d 2708 49bd 868e b7bc a3e5 0cbd
00000030: 2d2c c2bc 07ce b4bc 2fba 4abd 0352 b63c
00000040: 7b4c 13bd 0c75 0d3d dab1 24bd e3c6 1bbd
00000050: 4e4a 933c 7517 34bd e370 133c edad bdbc
00000060: 9ab7 e1bc 449a 0bbd f079 4fbd 532b aabb
00000070: c237 3b3c b722 073d 4873 f13b aee9 76bd
00000080: 144e 61bd 4fb5 3f3d ccde cdbb d384 133d
00000090: 4462 5abd 9f17 5d39 25ec 083c cfc8 863d
000000a0: 7bed 68bc 3667 f0bc 7859 0abd e726 1b3d
000000b0: 6fdb 40bd de34 333d 68b5 d0bc 381d 2ebd
000000c0: bd74 0d3d 1809 a3bc 9a45 7a3d c726 bb39
000000d0: f6cd 523d 05ba 293c d943 8e3c 8f3d 40bd
000000e0: 4703 f3bb 3fb9 483d 5066 e13c 0eac 683d
000000f0: 844e 903c 5773 a6bc 963a 74bd 11d1 8d3d
0.020048922 0.007865996 0.019335765 0.03921291 0.034317944 -0.007060663 0.043697663 -0.023421587
0.039548397 -0.04908004 -0.022406828 -0.034398686 -0.023702705 -0.022070898 -0.049493965 0.022255903
-0.03596161 0.034535453 -0.040208675 -0.03803147 0.017979767 -0.043967683 0.008999082 -0.023154223
-0.027553368 -0.034082666 -0.050653398 -0.005193153 0.011426868 0.03299209 0.007368479 -0.060281448
-0.0550061 0.04680377 -0.006282663 0.036015343 -0.05331637 0.00021085002 0.0083570825 0.0658127
-0.014216776 -0.02934609 -0.03377673 0.037878897 -0.04708427 0.04375159 -0.025477126 -0.042508334
0.03453516 -0.019901797 0.061101533 0.0003569631 0.05146595 0.010359292 0.017366337 -0.046933707
-0.007416162 0.04900479 0.027514607 0.05680471 0.017615564 -0.02031867 -0.059626184 0.06924642

module.bn5.weight f4 [64]
00000000: 0401 813f 0d61 853f 3356 813f eb78 813f
00000010: 4be6 803f 265d 833f f4ba 803f 0000 803f
00000020: 1e21 813f 0000 803f 5587 7f3f 6b51 823f
00000030: 8f70 7f3f 259f 7f3f 0000 803f 6907 813f
00000040: 0000 803f 4acc 803f 8111 813f d62c 813f
00000050: c195 813f 397e 7f3f 554b 813f 1bca 7f3f
00000060: 0000 803f 0000 803f a0fa 7e3f 3ab8 833f
00000070: 7a6f 863f dea2 813f 26a8 813f acfa 7e3f
00000080: ea7c 7f3f 763f 813f 80c5 813f c448 813f
00000090: 3f8e 843f 6f64 833f 752a 813f e1b6 843f
000000a0: bc9d 813f 2cec 7f3f 0000 803f 0d4a 813f
000000b0: 65fa 7f3f f525 813f 754a 833f f7db 853f
000000c0: 8d72 813f 6270 813f ee76 813f 7158 843f
000000d0: 5b3e 813f 8112 813f 8cc9 813f 0000 803f
000000e0: 618f 813f a249 803f 9491 813f c815 813f
000000f0: 6d0c 813f 1ef8 7f3f 7966 813f 5fb6 853f
1.0078435 1.0420243 1.0104431 1.0115026 1.007028 1.0262802 1.0057054 1.0
1.0088232 1.0 0.99815875 1.0181097 0.99781126 0.9985221 1.0 1.0080386
1.0 1.0062344 1.0083467 1.0091808 1.0123826 0.99801975 1.0101115 0.99917763
1.0 1.0 0.99601173 1.0290596 1.050277 1.0127828 1.012944 0.99601245
0.9979998 1.0097492 1.0138397 1.0100331 1.035591 1.0265025 1.0091082 1.036831
1.0126262 0.99969745 1.0 1.0100724 0.99991447 1.0089709 1.0257097 1.0457753
1.0113083 1.0112422 1.011442 1.033949 1.0097154 1.0083772 1.0139632 1.0
1.0121881 1.0022471 1.0122552 1.0084772 1.0081917 0.9998797 1.0109397 1.044628
